target_net.pt (torch, 183655 bytes, 20 tensors)

weight f4 [16, 3, 5, 5]
-0.075135864 -0.022240967 0.061328307 0.009675801 0.095152035 -0.10002759 -0.11057163 0.010574147
-0.05693497 -0.09336579 -0.09704201 -0.020427905 0.1069196 -0.057133146 0.091821656 -0.053344578
-0.1046661 0.05498381 -0.05229854 -0.11219459 -0.05667038 0.035011843 -0.100059964 0.078936085
-0.11376588 -0.10742675 0.060565278 -0.113746926 -0.083387494 -0.09680732 0.068593785 -0.090416074
-0.11196649 -0.103469275 0.014150992 0.030083805 -0.029324003 -0.011304207 -0.0035311505 -0.06555208
0.069449246 0.09112114 0.0034377798 -0.060458478 -0.09711104 0.0344377 0.08927818 0.11498913
0.07386245 0.068339854 0.07554805 0.021158278 0.0723629 0.056091577 0.039229378 -0.023920983
0.043153018 -0.06973393 0.059265107 0.100648865 -0.063010074 0.0046574622 -0.08810604 -0.083849505
-0.014992662 0.061790034 0.110900894 -0.06747619 0.05788009 0.009986922 -0.07654065 -0.033110745
0.015436232 -0.0432218 0.06951548 0.029207483 -0.04846599 -0.054551296 0.025991902 -0.041775256
-0.027542181 -0.024984732 0.09532069 0.07168068 -0.10299858 -0.07225649 -0.07788689 0.114534244
0.021006927 -0.099302664 0.09202191 0.054990172 0.0684941 0.10137856 0.092105016 -0.0032551885
0.03648804 0.044472188 0.020342112 0.0734614 0.08375029 -0.10943894 0.113352746 -0.012460999
0.08631776 -0.008489832 0.038979143 -0.10286703 0.09070444 0.055966616 -0.10694359 -0.030462615
0.065105915 0.028371498 -0.0833396 -0.0070990324 -0.100275055 0.01739423 -0.086580664 0.11056912
-0.09377859 0.028444633 -0.0032323897 0.06828086 -0.11399102 0.0013240501 0.106058404 -0.0036974475
0.013876542 0.054495096 0.08172794 -0.023678042 0.083405256 -0.066625655 0.060912326 0.071547955
-0.069594845 0.05501765 -0.034141615 0.059090465 0.03560762 0.03415644 -0.0885213 0.06179379
-0.08697471 -0.059080344 0.08360796 0.016464904 0.0821148 -0.007871576 -0.007977344 0.11369568
0.021219939 0.011868 -0.019655235 -0.02384226 0.09592745 0.085555315 -0.08131054 0.04253854
-0.08343029 -0.091043845 -0.024097838 0.0067157075 -0.02365943 0.002664715 -0.08252013 0.10349679
0.08402252 -0.053054877 0.041050717 0.02088365 0.03189157 0.018544078 0.08214125 0.09886356
0.021765769 0.04986386 -0.09864227 0.0062445253 -0.08177927 -0.023023568 -0.07919741 0.048227564
-0.10987943 0.044494882 -0.013622925 0.05467865 -0.0030509904 -0.110177934 0.043820888 -0.09250321
0.07957174 -0.045456514 0.032172874 -0.035011694 -0.06541934 0.05135736 0.110196635 0.10740575
-0.027386785 0.06738125 -0.006158173 0.09521958 0.09743975 -0.038040057 -0.06482803 -0.08014426
0.049008265 -0.042585097 -0.08346518 0.10940981 0.03342043 0.0488313 -0.03722933 -0.060814045
-0.09698559 -0.10092077 -0.06197161 0.04926242 -0.068951234 0.06728636 -0.034912497 0.0106668025
-0.07386649 -0.11152935 0.028567329 0.07017407 0.0801236 -0.051285177 -0.014856003 -0.021697313
-0.043745637 0.09305616 0.07086243 -0.06661017 0.056562677 0.09691021 -0.072204545 -0.0944562
0.07255076 -0.109667554 0.06843491 0.016533762 0.08916941 0.093964815 0.02764389 -0.035925746
0.032124743 0.07617654 0.023991227 -0.09747836 -0.097128175 0.01713182 -0.07450506 0.032424986
00000000: d5e0 99bd b032 b6bc 6433 7b3d 4087 1e3c
00000010: 12df c23d 44db ccbd 6173 e2bd 303f 2d3c
00000020: a534 69bd 9036 bfbd f6bd c6bd 6c58 a7bc
00000030: aaf8 da3d 7204 6abd fe0c bc3d d87f 5abd
00000040: 2e5b d6bd b436 613d fe36 56bd 47c6 e5bd
00000050: 331f 68bd 9468 0f3d 3dec ccbd 3ea9 a13d
00000060: 16fe e8bd 8e02 dcbd 4c13 783d 26f4 e8bd
00000070: 10c7 aabd eb42 c6bd e67a 8c3d 102c b9bd
00000080: b04e e5bd b3e7 d3bd 90d9 673c 5072 f63c
00000090: e438 f0bc 4835 39bc e06a 67bb 2b40 86bd
000000a0: 683b 8e3d b89d ba3d 604c 613b 4fa3 77bd
000000b0: 27e2 c6bd 8c0e 0d3d 7ad7 b63d 6c7f eb3d
000000c0: 3245 973d c4f5 8b3d f0b8 9a3d 2054 ad3c
000000d0: 0033 943d 48c0 653d fcae 203d f0f5 c3bc
000000e0: 38c1 303d aad0 8ebd f8bf 723d fe20 ce3d
000000f0: 6d0b 81bd a09d 983b f170 b4bd 4ab9 abbd
00000100: c8a3 75bc 8c17 7d3d 0220 e33d f530 8abd
00000110: ac13 6d3d 30a0 233c 58c1 9cbd 229f 07bd
00000120: 40e8 7c3c 5809 31bd 225e 8e3d 8844 ef3c
00000130: 4684 46bd 2e71 5fbd f8ec d43c 881c 2bbd
00000140: 24a0 e1bc c8ac ccbc 7e37 c33d 52cd 923d
00000150: ebf0 d2bd 36fb 93bd 2983 9fbd ee90 ea3d
00000160: b816 ac3c 325f cbbd fc75 bc3d 603d 613d
00000170: a246 8c3d 909f cf3d 8ea1 bc3d 0055 55bb
00000180: 7c74 153d 7828 363d 80a4 a63c ee72 963d
00000190: 4685 ab3d 8621 e0bd 7c25 e83d 3829 4cbc
000001a0: 5ec7 b03d f018 0bbc 98a8 1f3d f3ab d2bd
000001b0: 40c3 b93d 403d 653d 3e05 dbbd bc8c f9bc
000001c0: 4056 853d 586b e83c f4ad aabd 009f e8bb
000001d0: 025d cdbd 587e 8e3c 3451 b1bd 1072 e23d
000001e0: fd0e c0bd b804 e93c 80d6 53bb d6d6 8b3d
000001f0: 2074 e9bd c08b ad3a 2635 d93d e050 72bb
00000200: 705a 633c 4036 5f3d fa60 a73d 74f8 c1bc
00000210: 60d0 aa3d 0873 88bd 347f 793d bc87 923d
00000220: be87 8ebd 305a 613d 14d8 0bbd d808 723d
00000230: 4cd9 113d a0e7 0b3d a84a b5bd 7c1b 7d3d
00000240: cc1f b2bd 3bfe 71bd a63a ab3d 68e1 863c
00000250: ce2b a83d c8f7 00bc 68b3 02bc 48d9 e83d
00000260: 70d5 ad3c 0072 423c 0404 a1bc d850 c3bc
00000270: 9c75 c43d a037 af3d 2486 a6bd e43c 2e3d
00000280: 80dd aabd 3275 babd d468 c5bc 700f dc3b
00000290: 6cd1 c1bc 80a2 2e3b 5000 a9bd 20f6 d33d
000002a0: 0014 ac3d 1250 59bd cc24 283d 3014 ab3c
000002b0: bca0 023d c0e9 973c ac39 a83d fa78 ca3d
000002c0: 204e b23c 0c3e 4c3d f504 cabd e09e cc3b
000002d0: e47b a7bd ec9b bcbc 4032 a2bd 448a 453d
000002e0: 7708 e1bd 4440 363d b032 5fbc b8f6 5f3d
000002f0: 20f3 47bb f8a4 e1bd 887d 333d 5372 bdbd
00000300: 82f6 a23d 9c30 3abd b4c7 033d 6c68 0fbd
00000310: 93fa 85bd 185c 523d c6ae e13d 8cf7 db3d
00000320: 405a e0bc 2eff 893d 80ca c9bb 7c02 c33d
00000330: 7e8e c73d e4cf 1bbd 8fc4 84bd ac22 a4bd
00000340: e4bc 483d b66d 2ebd cbef aabd 4012 e03d
00000350: dce3 083d 5403 483d c87d 18bd 2618 79bd
00000360: 62a0 c6bd 8caf cebd f1d5 7dbd 64c7 493d
00000370: 4e36 8dbd 6ecd 893d 6800 0fbd d0c3 2e3c
00000380: 5047 97bd 8069 e4bd 0806 ea3c 6cb7 8f3d
00000390: d817 a43d 6810 52bd 9866 73bc 90be b1bc
000003a0: a02e 33bd 3a94 be3d 5220 913d ea6a 88bd
000003b0: 44ae 673d dc78 c63d fadf 93bd 4172 c1bd
000003c0: 7e95 943d 6299 e0bd 9a27 8c3d d071 873c
000003d0: 749e b63d a070 c03d 7075 e23c e026 13bd
000003e0: 3c95 033d 7202 9c3d 4089 c43c bca2 c7bd
000003f0: 23eb c6bd 0858 8c3c 1c96 98bd 10d0 043d

bias f4 [16]
0.071996436 -0.088943504 -0.0765229 -0.106294066 0.030614585 -0.061616153 -0.023230992 -0.068929225
0.019412667 -0.08724564 -0.08692138 -0.07966621 -0.009477727 -0.044191048 -0.10467697 -0.063654885
00000000: de72 933d 0328 b6bd 0ab8 9cbd b4b0 d9bd
00000010: 70cb fa3c 3861 7cbd ec4e bebc c42a 8dbd
00000020: 5007 9f3c d8ad b2bd d603 b2bd 0a28 a3bd
00000030: 7848 1bbc ac01 35bd e160 d6bd 7e5d 82bd

weight f4 [16]
1.0 1.0 1.0 1.0 1.0 1.0 1.0 1.0
1.0 1.0 1.0 1.0 1.0 1.0 1.0 1.0
00000000: 0000 803f 0000 803f 0000 803f 0000 803f
00000010: 0000 803f 0000 803f 0000 803f 0000 803f
00000020: 0000 803f 0000 803f 0000 803f 0000 803f
00000030: 0000 803f 0000 803f 0000 803f 0000 803f

bias f4 [16]
0.0 0.0 0.0 0.0 0.0 0.0 0.0 0.0
0.0 0.0 0.0 0.0 0.0 0.0 0.0 0.0
00000000: 0000 0000 0000 0000 0000 0000 0000 0000
00000010: 0000 0000 0000 0000 0000 0000 0000 0000
00000020: 0000 0000 0000 0000 0000 0000 0000 0000
00000030: 0000 0000 0000 0000 0000 0000 0000 0000

running_mean f4 [16]
0.0 0.0 0.0 0.0 0.0 0.0 0.0 0.0
0.0 0.0 0.0 0.0 0.0 0.0 0.0 0.0
00000000: 0000 0000 0000 0000 0000 0000 0000 0000
00000010: 0000 0000 0000 0000 0000 0000 0000 0000
00000020: 0000 0000 0000 0000 0000 0000 0000 0000
00000030: 0000 0000 0000 0000 0000 0000 0000 0000

running_var f4 [16]
1.0 1.0 1.0 1.0 1.0 1.0 1.0 1.0
1.0 1.0 1.0 1.0 1.0 1.0 1.0 1.0
00000000: 0000 803f 0000 803f 0000 803f 0000 803f
00000010: 0000 803f 0000 803f 0000 803f 0000 803f
00000020: 0000 803f 0000 803f 0000 803f 0000 803f
00000030: 0000 803f 0000 803f 0000 803f 0000 803f

weight f4 [32, 16, 5, 5]
-0.040275384 0.049863707 0.033001814 0.03224398 -0.00035094097 0.036465336 -0.031985432 -0.02939183
-0.041422177 -0.005724065 -0.010014556 -0.03332612 -0.04158007 0.015368145 0.033148084 -0.029086698
0.02074745 -0.03650403 -0.01888956 0.030371372 -0.0024052933 -0.041035403 -0.00010210276 0.019738916
-0.042596806 0.04826797 -0.045045562 0.041474823 -0.049103994 -0.029956251 0.016340364 0.044162337
-0.02511995 0.022049468 0.0125779845 -0.014024515 -0.043016404 -0.012228243 -0.04799928 -0.020202208
-0.0094966665 0.019982528 0.04043146 0.025466818 0.0392077 -0.0443221 0.02207945 0.004844226
0.02098002 -0.032382444 0.04890508 -0.04940306 0.014326792 0.04187679 -0.043156087 0.0099312775
0.040835265 -0.039534576 -0.044433106 -0.018671941 0.009826202 -0.0059553795 -0.032880977 0.040951703
0.009315003 0.0009813718 0.032786395 -0.046489853 -0.047303844 -0.0475578 -0.019749487 -0.019204868
0.033163052 -0.008770853 0.037341256 -0.02820821 0.030528072 -0.039417632 0.04049805 -0.041092616
-0.00042760372 -0.0024479143 0.01613741 0.016124267 0.03390767 0.014577221 -0.0003584437 0.04303715
0.03998008 0.029850189 0.0111571625 -0.013177145 0.037016843 0.0007188134 0.038159218 -0.049224187
-0.021710157 0.030877862 0.049486216 -0.017153692 0.04857866 -0.031428296 -0.041564353 0.037487764
0.047659304 0.042742427 -0.033038545 -0.0108149275 -0.020605778 -0.011486523 -0.04353121 -0.008968979
0.037927892 0.042209465 -0.0012350492 -0.023944898 0.045173917 0.027638469 -0.044452727 -0.042673856
-0.0040056184 -0.0056096204 -0.040339977 0.025870804 0.03218599 -0.000644248 -0.033950403 -0.039074935
0.013544355 -0.0003152117 0.014275495 -0.009791382 -0.014737349 0.04434729 0.006523233 0.010274656
-0.026537424 -0.03255228 -0.04423902 -0.028104687 -0.02619036 0.0023717284 -0.026451005 0.046107616
0.0021016076 -0.033880062 0.027476948 -0.007927723 0.002402991 0.003271155 -0.030379713 -0.037062407
-0.040734075 -0.022878295 0.0020121709 0.02589691 0.04768076 0.01957861 -0.0048704036 -0.023800546
-0.041540343 0.017438944 0.046138387 0.01688305 -0.039553903 9.442121e-05 0.0032908395 0.032519642
0.04765517 -0.019588757 -0.03943053 0.0066267326 0.018917892 -0.024970537 -0.002400197 -0.0041208044
0.036183897 -0.044606995 -0.011590742 -0.03414436 0.021562051 -0.024126668 -0.020535553 -0.044750154
0.021293167 -0.048698258 -0.02209711 0.024030592 -0.039862074 0.027954098 0.044689287 0.041417208
-0.005043775 0.002464313 0.023083646 -0.047050554 -0.04983752 -0.030797256 0.0066180006 0.022233043
-0.049752165 0.0009989329 -0.023902351 0.046679985 0.02052055 -0.04199224 0.01773372 -0.0056378245
0.041891206 0.0358739 0.04272837 -0.0049746856 0.04343209 0.02808914 0.009875178 0.027146194
0.043625806 0.03270967 -0.040852018 0.022937756 0.00062801316 0.009197008 -0.009271793 -0.04262809
0.041048948 0.036826503 -0.02992539 -0.03086254 0.035832588 0.0023924522 -0.042382568 -0.041734032
-0.036479075 -0.010768671 -0.035491597 -0.003857851 -0.03664028 -0.0021211132 -0.04901547 0.034416113
0.018488873 -0.041474115 -0.020960605 -0.0071807876 -0.015233893 -0.0067091994 -0.04961587 -0.04511213
-0.014879245 -0.025072128 -0.016235787 -0.034258656 -0.025730295 -0.041620053 -0.04372242 -0.02703101
00000000: cdf7 24bd e33d 4c3d e92c 073d 4312 043d
00000010: 80fe b7b9 ad5c 153d 2803 03bd 23c7 f0bc
00000020: 4daa 29bd f090 bbbb 1814 24bc f880 08bd
00000030: dd4f 2abd acca 7b3c 49c6 073d 3a47 eebc
00000040: 8ef6 a93c 4085 15bd 47be 9abc 62cd f83c
00000050: 20a2 1dbb bd14 28bd 0020 d6b8 82b3 a13c
00000060: fd79 2ebd a3b4 453d b281 38bd 81e1 293d
00000070: 4521 49bd d066 f5bc 3adc 853c 91e3 343d
00000080: 5ac8 cdbc 16a1 b43c e413 4e3c 14c7 65bc
00000090: f831 30bd f858 48bc e59a 44bd 1a7f a5bc
000000a0: e897 1bbc 66b2 a33c 759b 253d ca9f d03c
000000b0: 4198 203d 178b 35bd f6df b43c 50bc 9e3b
000000c0: 4ade ab3c 74a3 04bd b150 483d dd5a 4abd
000000d0: ecba 6a3c ff86 2b3d 70c4 30bd ccb6 223c
000000e0: e142 273d 02ef 21bd 7dff 35bd e6f5 98bc
000000f0: 14fe 203c 5825 c3bb 34ae 06bd f9bc 273d
00000100: f49d 183c 60a1 803a 074b 063d 256c 3ebd
00000110: adc1 41bd f8cb 42bd adc9 a1bc 8753 9dbc
00000120: fbd5 073d a0b3 0fbc 25f3 183d e714 e7bc
00000130: 0216 fa3c 6274 21bd 49e1 253d bb50 28bd
00000140: 0030 e0b9 306d 20bb 9a32 843c 0a17 843c
00000150: c5e2 0a3d 4cd5 6e3c 80ed bbb9 b947 303d
00000160: 27c2 233d 6288 f43c 88cc 363c f4e4 57bc
00000170: f99e 173d c06e 3c3a d74c 1c3d 4d9f 49bd
00000180: 80d9 b1bc 92f3 fc3c 0fb2 4a3d e685 8cbc
00000190: 6bfa 463d f5ba 00bd 623f 2abd c58c 193d
000001a0: 6736 433d af12 2f3d 6d53 07bd 1831 31bc
000001b0: 73cd a8bc f831 3cbc c84d 32bd a0f2 12bc
000001c0: 475a 1b3d d5e3 2c3d 60e1 a1ba 1728 c4bc
000001d0: 4908 393d 126a e23c 1014 36bd c8ca 2ebd
000001e0: 9041 83bb e8d0 b7bb 883b 25bd 02ef d33c
000001f0: 75d5 033d c0e2 28ba 940f 0bbd 0a0d 20bd
00000200: 24e9 5d3c 0043 a5b9 c4e3 693c 086c 20bc
00000210: ec74 71bc 81a5 353d d8c0 d53b 0857 283c
00000220: 0365 d9bc 8a55 05bd fa33 35bd cd3b e6bc
00000230: 2a8d d6bc 006f 1b3b c7af d8bc 57db 3c3d
00000240: 20bb 093b d2c5 0abd 5617 e13c 48e3 01bc
00000250: 807b 1d3b e060 563b e0de f8bc c0ce 17bd
00000260: c6d8 26bd 436b bbbc a0de 033b c225 d43c
00000270: e74c 433d 5263 a03c e897 9fbb 5df9 c2bc
00000280: 3526 2abd 1edc 8e3c 9bfb 3c3d 524e 8a3c
00000290: 4603 22bd 0004 c638 20ab 573b 5133 053d
000002a0: 1132 433d 9a78 a0bc e881 21bd 1025 d93b
000002b0: b2f9 9a3c 038f ccbc a04c 1dbb d007 87bb
000002c0: 9135 143d d3b5 36bd 18e7 3dbc f5da 0bbd
000002d0: e6a2 b03c 4aa5 c5bc 2d3a a8bc f04b 37bd
000002e0: 026f ae3c d377 47bd 0005 b5bc cedb c43c
000002f0: 6a46 23bd feff e43c 1d0c 373d 17a5 293d
00000300: 4046 a5bb 5080 213b ea19 bd3c 15b8 40bd
00000310: 6d22 4cbd 874a fcbc d0db d83b 1222 b63c
00000320: edc8 4bbd a0ee 823a ddce c3bc 8333 3f3d
00000330: b61a a83c 0e00 2cbd 4e46 913c 80bd b8bb
00000340: 1d96 2b3d 83f0 123d f103 2f3d b002 a3bb
00000350: d9e5 313d 321b e63c 80cb 213c b261 de3c
00000360: f9b0 323d 93fa 053d 7254 27bd f6e7 bb3c
00000370: 40a1 243a 0caf 163c b8e8 17bc cb9a 2ebd
00000380: f122 283d 63d7 163d 1726 f5bc 70d3 fcbc
00000390: 31c5 123d b0ca 1c3b 5899 2dbd 4ef1 2abd
000003a0: 156b 15bd 146f 30bc a35f 11bd 00d4 7cbb
000003b0: 1e14 16bd 6002 0bbb 72c4 48bd e9f7 0c3d
000003c0: fa75 973c c3e0 29bd 93b5 abbc d04c ebbb
000003d0: 9497 79bc d8d8 dbbb 033a 4bbd 7fc7 38bd
000003e0: 14c8 73bc 1064 cdbc ea00 85bc ce52 0cbd
000003f0: 57c8 d2bc ca79 2abd 4816 33bd 2370 ddbc

bias f4 [32]
0.04644641 -0.0127627775 0.022349846 0.04638299 -0.041882403 -0.0004688725 -0.004675448 -0.048616916
0.0402751 0.0021095946 0.035417806 -0.008869737 0.010263406 -0.045770086 -0.028530616 0.011226624
-0.020173622 0.0029551014 0.045920294 -0.046871495 0.049384397 0.025629576 0.035268012 0.039178345
-0.013951469 -0.046597566 0.004576206 -0.021262873 -0.026562715 -0.045862228 0.03696348 0.0022624247
00000000: 973e 3e3d f81a 51bc 0617 b73c 17fc 3d3d
00000010: e28c 2bbd 00d3 f5b9 8034 99bb 8822 47bd
00000020: 81f7 243d 2041 0a3b 4312 113d 6052 11bc
00000030: d827 283c 6a79 3bbd 0ab9 e9bc e0ef 373c
00000040: 2743 a5bc 60aa 413b eb16 3c3d 53fc 3fbd
00000050: 4b47 4a3d 1ef5 d13c 3175 103d 7979 203d
00000060: b494 64bc 17dd 3ebd 00f4 953b 7a2f aebc
00000070: 0d9a d9bc 08da 3bbd 0567 173d 3045 143b

weight f4 [32]
1.0 1.0 1.0 1.0 1.0 1.0 1.0 1.0
1.0 1.0 1.0 1.0 1.0 1.0 1.0 1.0
1.0 1.0 1.0 1.0 1.0 1.0 1.0 1.0
1.0 1.0 1.0 1.0 1.0 1.0 1.0 1.0
00000000: 0000 803f 0000 803f 0000 803f 0000 803f
00000010: 0000 803f 0000 803f 0000 803f 0000 803f
00000020: 0000 803f 0000 803f 0000 803f 0000 803f
00000030: 0000 803f 0000 803f 0000 803f 0000 803f
00000040: 0000 803f 0000 803f 0000 803f 0000 803f
00000050: 0000 803f 0000 803f 0000 803f 0000 803f
00000060: 0000 803f 0000 803f 0000 803f 0000 803f
00000070: 0000 803f 0000 803f 0000 803f 0000 803f

bias f4 [32]
0.0 0.0 0.0 0.0 0.0 0.0 0.0 0.0
0.0 0.0 0.0 0.0 0.0 0.0 0.0 0.0
0.0 0.0 0.0 0.0 0.0 0.0 0.0 0.0
0.0 0.0 0.0 0.0 0.0 0.0 0.0 0.0
00000000: 0000 0000 0000 0000 0000 0000 0000 0000
00000010: 0000 0000 0000 0000 0000 0000 0000 0000
00000020: 0000 0000 0000 0000 0000 0000 0000 0000
00000030: 0000 0000 0000 0000 0000 0000 0000 0000
00000040: 0000 0000 0000 0000 0000 0000 0000 0000
00000050: 0000 0000 0000 0000 0000 0000 0000 0000
00000060: 0000 0000 0000 0000 0000 0000 0000 0000
00000070: 0000 0000 0000 0000 0000 0000 0000 0000

running_mean f4 [32]
0.0 0.0 0.0 0.0 0.0 0.0 0.0 0.0
0.0 0.0 0.0 0.0 0.0 0.0 0.0 0.0
0.0 0.0 0.0 0.0 0.0 0.0 0.0 0.0
0.0 0.0 0.0 0.0 0.0 0.0 0.0 0.0
00000000: 0000 0000 0000 0000 0000 0000 0000 0000
00000010: 0000 0000 0000 0000 0000 0000 0000 0000
00000020: 0000 0000 0000 0000 0000 0000 0000 0000
00000030: 0000 0000 0000 0000 0000 0000 0000 0000
00000040: 0000 0000 0000 0000 0000 0000 0000 0000
00000050: 0000 0000 0000 0000 0000 0000 0000 0000
00000060: 0000 0000 0000 0000 0000 0000 0000 0000
00000070: 0000 0000 0000 0000 0000 0000 0000 0000

running_var f4 [32]
1.0 1.0 1.0 1.0 1.0 1.0 1.0 1.0
1.0 1.0 1.0 1.0 1.0 1.0 1.0 1.0
1.0 1.0 1.0 1.0 1.0 1.0 1.0 1.0
1.0 1.0 1.0 1.0 1.0 1.0 1.0 1.0
00000000: 0000 803f 0000 803f 0000 803f 0000 803f
00000010: 0000 803f 0000 803f 0000 803f 0000 803f
00000020: 0000 803f 0000 803f 0000 803f 0000 803f
00000030: 0000 803f 0000 803f 0000 803f 0000 803f
00000040: 0000 803f 0000 803f 0000 803f 0000 803f
00000050: 0000 803f 0000 803f 0000 803f 0000 803f
00000060: 0000 803f 0000 803f 0000 803f 0000 803f
00000070: 0000 803f 0000 803f 0000 803f 0000 803f

weight f4 [32, 32, 5, 5]
-0.016263396 -0.020294745 0.02549804 0.015200872 -0.010170115 0.008062478 0.033504304 -0.007823121
0.016271345 -0.015014904 -0.025282817 0.012599278 -0.029167626 -0.025980752 0.016547512 -0.026116211
0.008529641 -0.011206565 -0.0012730286 -0.008366916 0.0071263947 -0.020571241 -0.023004983 -0.014113024
0.001742255 -0.009593159 -0.032345895 -0.02507845 0.028507587 -0.02499801 -0.027569402 0.0112131685
-0.024610646 -0.023473002 -0.03343436 -0.012784295 -0.032463025 0.017371438 -0.026060645 -0.013592608
0.016729474 -0.032418128 0.017362297 0.0057759844 -0.0072017927 -0.01812379 -0.006330967 -0.0118472725
0.03450158 -0.0078650955 -0.029454313 0.026469294 -0.019150458 -0.01191676 0.03449742 0.022971842
-0.008901376 0.026618414 0.020617217 0.0068741404 0.018967118 -0.015079515 0.017972272 -0.030127825
0.00013408065 0.00057882816 -0.033766747 -0.0030998029 0.021379218 -0.015499458 0.01181712 0.012352027
0.030744325 -0.016716242 0.021341935 0.035304036 -0.019814298 0.02463533 -0.0046438742 0.023455482
-0.014784988 0.005080063 0.019839931 0.00416328 0.03382011 -0.0046143513 -0.01594895 -0.025361842
-0.020280706 -0.029342625 -0.021906655 -0.019820955 -0.026403353 -0.01595679 0.01818084 -0.032526154
-0.014304442 -0.019910986 0.015764508 0.014691871 0.0155002065 -0.033029817 -0.002397202 0.01647158
0.010808773 0.016416665 0.031199578 -0.017207531 0.026307598 0.011849575 -0.021947388 0.03183053
-0.029749379 -0.0047874358 -0.017630445 -0.0136273205 0.026094865 -0.010653932 -0.0031718202 -0.020627279
-0.0017878003 -0.0045016836 0.024144705 0.032540757 -0.014993906 -0.025740355 0.017640952 -0.011556489
-0.023190651 -0.027670583 0.023120295 -0.010821605 -0.018898109 -0.0035190172 0.021786328 -0.0060159992
-0.018864108 -0.03355677 0.0163838 -0.034329828 0.013461769 -0.018245393 0.034250613 0.025981396
0.019299641 -0.02273785 -0.014630808 -0.025146808 -0.03183991 -0.034206484 0.03150783 0.01540751
0.030049685 -0.019305719 0.006083466 0.0055562407 -0.02153109 0.00802758 -0.011365071 0.02557204
-0.030989058 0.035344515 0.019986127 0.016223721 -0.01457594 0.019697484 -0.027695522 0.0274315
-0.030406136 -0.017180772 -0.008316506 0.016467746 -0.034275558 -0.030241959 -0.02401115 -0.010971066
0.021523535 0.029127862 0.0077214167 0.00432653 0.0070264377 -0.019291768 -0.02752433 0.02515585
0.020906541 -0.0032301098 0.025724899 0.001592081 0.016336367 -0.019619843 0.016854994 0.024592817
0.0084006 -0.009615045 -0.00790924 -0.010530973 0.005190611 -0.014231836 0.028025959 0.019757908
-0.015146082 -0.022902502 0.022588663 0.00856078 0.0039231256 -0.0018869005 -0.034013573 -0.029587237
0.0039522685 -0.029437985 0.014748793 0.0124492645 0.0005797781 0.024786778 0.0049861856 0.025099799
-0.016319316 0.014827453 0.03182945 0.024143495 -0.033161946 -0.011508159 0.020533595 -0.015831651
-0.026117004 -0.02853263 0.0041304715 -0.023953956 -0.034313478 -0.010904845 0.021064583 -0.02281361
0.03010172 -0.029774942 0.021514028 -0.03279423 0.0065906607 -0.034051325 0.009723891 0.017887533
0.00050232187 0.020495262 -0.006912833 -0.0056295507 0.00031443313 0.020399079 0.0059661716 -0.016738258
-0.011369543 0.028464835 0.03028937 -0.00236601 0.019725043 0.021697063 0.017776735 0.004996896
00000000: d03a 85bc 2a41 a6bc 44e1 d03c 140d 793c
00000010: 8ea0 26bc 7c18 043c cf3b 093d 8c2c 00bc
00000020: 7c4b 853c 1201 76bc e91d cfbc 346d 4e3c
00000030: f2f0 eebc 96d5 d4bc a68e 873c aaf1 d5bc
00000040: e8bf 0b3c be9b 37bc c0db a6ba 6415 09bc
00000050: 8884 e93b 0585 a8bc f274 bcbc 503a 67bc
00000060: 605c e43a a02c 1dbc 217d 04bd 5271 cdbc
00000070: be88 e93c a0c8 ccbc 3ad9 e1bc 70b7 373c
00000080: 449c c9bc 744a c0bc 78f2 08bd 3875 51bc
00000090: f3f7 04bd 8c4e 8e3c 227d d5bc 88b3 5ebc
000000a0: 400c 893c dfc8 04bd 603b 8e3c 7844 bd3b
000000b0: 04fd ebbb 5878 94bc 0074 cfbb 101b 42bc
000000c0: 8751 0d3d 9adc 00bc 2c4a f1bc 22d6 d83c
000000d0: 6ce1 9cbc 843e 43bc 2b4d 0d3d 722f bc3c
000000e0: 14d7 11bc dc0e da3c 70e5 a83c 7840 e13b
000000f0: ee60 9b3c 1210 77bc 963a 933c a1ce f6bc
00000100: 0098 0c39 80bc 173a 004f 0abd 1026 4bbb
00000110: 7823 af3c 70f1 7dbc 989c 413c 2860 4a3c
00000120: 86db fb3c 80f0 88bc 48d5 ae3c f79a 103d
00000130: 9851 a2bc 08d0 c93c a42b 98bb b625 c03c
00000140: bc3c 72bc a876 a63b 5a87 a23c 206c 883b
00000150: f586 0a3d fc33 97bb 5fa7 82bc a3c3 cfbc
00000160: b923 a6bc f25f f0bc 9675 b3bc 8e5f a2bc
00000170: d84b d8bc d0b7 82bc fcef 943c 253a 05bd
00000180: 2e5d 6abc 5d1c a3bc 9224 813c 2cb6 703c
00000190: 94f4 7d3c 464a 07bd 601a 1dbb 68ef 863c
000001a0: 4817 313c 3e7c 863c 4296 ff3c cff6 8cbc
000001b0: 0883 d73c b824 423c 02cb b3bc bb60 023d
000001c0: f8b4 f3bc ecdf 9cbb b96d 90bc 2045 5fbc
000001d0: e6c4 d53c d48d 2ebc 50de 4fbb 8afa a8bc
000001e0: a054 eaba dc82 93bb 1ecb c53c 7549 053d
000001f0: 00a9 75bc 70dd d2bc c283 903c 6e57 3dbc
00000200: 52fa bdbc 6bad e2bc c666 bd3c 1a4d 31bc
00000210: 35d0 9abc 509f 66bb 3e79 b23c dc21 c5bb
00000220: e788 9abc d372 09bd 5237 863c 6f9d 0cbd
00000230: c08e 5c3c 5d77 95bc 5f4a 0c3d f0d6 d43c
00000240: 481a 9e3c ba44 babc 0eb6 6fbc ae00 cebc
00000250: 916a 02bd 191c 0cbd 5b0e 013d c86f 7c3c
00000260: c22a f63c 0727 9ebc d057 c73b 2011 b63b
00000270: f861 b0bc 1c86 033c 9034 3abc 747c d13c
00000280: c4dc fdbc 69c5 103d f2b9 a33c 9ce7 843c
00000290: eccf 6ebc 9e5c a13c b8e1 e2bc 06b8 e03c
000002a0: 4a16 f9bc b1be 8cbc f441 08bc 5ee7 863c
000002b0: 8764 0cbd fcbd f7bc 08b3 c4bc fcbf 33bc
000002c0: 2052 b03c 8e9d ee3c f003 fd3b 90c5 8d3b
000002d0: 083e e63b c509 9ebc b47a e1bc a413 ce3c
000002e0: 3244 ab3c 40b0 53bb 06bd d23c 60ad d03a
000002f0: d8d3 853c cbb9 a0bc 7c13 8a3c e076 c93c
00000300: aca2 093c 6c88 1dbc c295 01bc 1a8a 2cbc
00000310: 0016 aa3b a62c 69bc b296 e53c 56db a13c
00000320: 4627 78bc 079e bbbc dc0b b93c 8442 0c3c
00000330: 908d 803b e051 f7ba d151 0bbd ef60 f2bc
00000340: 0882 813b ee27 f1bc eca4 713c 00f8 4b3c
00000350: 40fc 173a a40d cb3c 2863 a33b 189e cd3c
00000360: 16b0 85bc d8ee 723c 995f 023d 94c8 c53c
00000370: d2d4 07bd b88c 3cbc 1236 a83c 61b1 81bc
00000380: 54f3 d5bc 43bd e9bc e858 873b 163b c4bc
00000390: 4a8c 0cbd 3caa 32bc a28f ac3c 9ce3 babc
000003a0: e297 f63c 94ea f3bc 303e b03c 3e53 06bd
000003b0: 78f6 d73b 6779 0bbd f450 1f3c e088 923c
000003c0: 40ae 033a aee5 a73c 0c85 e2bb 1878 b8bb
000003d0: 80da a439 f81b a73c e07f c33b ac1e 89bc
000003e0: 5247 3abc 162f e93c 6a21 f83c 100f 1bbb
000003f0: 6a96 a13c 0abe b13c 84a0 913c 00bd a33b

bias f4 [32]
-0.028951522 0.032890026 0.003761299 -0.027996467 -0.00074658915 0.034044255 -0.008020256 -0.024743978
0.02838597 0.02781007 0.014490716 -0.011726089 0.024699986 0.01970872 0.0014944598 0.017554332
-0.014939174 0.03461959 0.023255952 0.02655236 0.013324436 -0.022799574 -0.009219661 0.016244397
0.026532251 -0.027614906 -0.010511775 -0.027558953 -0.013339449 -0.023018181 -0.009036588 -0.021572728
00000000: be2b edbc b1b7 063d 2080 763b d958 e5bc
00000010: c0b6 43ba fd71 0b3d 6467 03bc e2b3 cabc
00000020: b289 e83c f2d1 e33c 786a 6d3c c81e 40bc
00000030: a057 ca3c 2e74 a13c c0e1 c33a 1ace 8f3c
00000040: 70c3 74bc 45cd 0d3d 4483 be3c 5684 d93c
00000050: bc4e 5a3c 2cc6 babc 100e 17bc f812 853c
00000060: 2a5a d93c a838 e2bc 9439 2cbc 50c3 e1bc
00000070: b48d 5abc a090 bcbc 320e 14bc 4ab9 b0bc

weight f4 [32]
1.0 1.0 1.0 1.0 1.0 1.0 1.0 1.0
1.0 1.0 1.0 1.0 1.0 1.0 1.0 1.0
1.0 1.0 1.0 1.0 1.0 1.0 1.0 1.0
1.0 1.0 1.0 1.0 1.0 1.0 1.0 1.0
00000000: 0000 803f 0000 803f 0000 803f 0000 803f
00000010: 0000 803f 0000 803f 0000 803f 0000 803f
00000020: 0000 803f 0000 803f 0000 803f 0000 803f
00000030: 0000 803f 0000 803f 0000 803f 0000 803f
00000040: 0000 803f 0000 803f 0000 803f 0000 803f
00000050: 0000 803f 0000 803f 0000 803f 0000 803f
00000060: 0000 803f 0000 803f 0000 803f 0000 803f
00000070: 0000 803f 0000 803f 0000 803f 0000 803f

bias f4 [32]
0.0 0.0 0.0 0.0 0.0 0.0 0.0 0.0
0.0 0.0 0.0 0.0 0.0 0.0 0.0 0.0
0.0 0.0 0.0 0.0 0.0 0.0 0.0 0.0
0.0 0.0 0.0 0.0 0.0 0.0 0.0 0.0
00000000: 0000 0000 0000 0000 0000 0000 0000 0000
00000010: 0000 0000 0000 0000 0000 0000 0000 0000
00000020: 0000 0000 0000 0000 0000 0000 0000 0000
00000030: 0000 0000 0000 0000 0000 0000 0000 0000
00000040: 0000 0000 0000 0000 0000 0000 0000 0000
00000050: 0000 0000 0000 0000 0000 0000 0000 0000
00000060: 0000 0000 0000 0000 0000 0000 0000 0000
00000070: 0000 0000 0000 0000 0000 0000 0000 0000

running_mean f4 [32]
0.0 0.0 0.0 0.0 0.0 0.0 0.0 0.0
0.0 0.0 0.0 0.0 0.0 0.0 0.0 0.0
0.0 0.0 0.0 0.0 0.0 0.0 0.0 0.0
0.0 0.0 0.0 0.0 0.0 0.0 0.0 0.0
00000000: 0000 0000 0000 0000 0000 0000 0000 0000
00000010: 0000 0000 0000 0000 0000 0000 0000 0000
00000020: 0000 0000 0000 0000 0000 0000 0000 0000
00000030: 0000 0000 0000 0000 0000 0000 0000 0000
00000040: 0000 0000 0000 0000 0000 0000 0000 0000
00000050: 0000 0000 0000 0000 0000 0000 0000 0000
00000060: 0000 0000 0000 0000 0000 0000 0000 0000
00000070: 0000 0000 0000 0000 0000 0000 0000 0000

running_var f4 [32]
1.0 1.0 1.0 1.0 1.0 1.0 1.0 1.0
1.0 1.0 1.0 1.0 1.0 1.0 1.0 1.0
1.0 1.0 1.0 1.0 1.0 1.0 1.0 1.0
1.0 1.0 1.0 1.0 1.0 1.0 1.0 1.0
00000000: 0000 803f 0000 803f 0000 803f 0000 803f
00000010: 0000 803f 0000 803f 0000 803f 0000 803f
00000020: 0000 803f 0000 803f 0000 803f 0000 803f
00000030: 0000 803f 0000 803f 0000 803f 0000 803f
00000040: 0000 803f 0000 803f 0000 803f 0000 803f
00000050: 0000 803f 0000 803f 0000 803f 0000 803f
00000060: 0000 803f 0000 803f 0000 803f 0000 803f
00000070: 0000 803f 0000 803f 0000 803f 0000 803f

weight f4 [4, 896]
-0.0041949134 -0.0041045975 0.010499455 0.011149067 -0.0049922187 -0.0036186855 -0.0143249035 0.004017975
-0.008140741 0.015921649 0.029124845 0.0039015897 -0.025839407 0.00048453733 0.016714573 -0.0022945516
0.017848901 0.00774318 -0.0065397993 -0.024543535 -0.005870452 -0.017772572 -0.01683384 -0.009328192
0.010485791 0.0039998293 -0.00044159964 -0.006559469 0.021010894 0.007628087 0.029621366 -0.018127207
-0.018175777 -0.028248478 0.0070295148 -0.018980153 -0.029792063 -0.015467774 -0.023052096 0.032964926
-0.029333876 -0.016217599 0.0134003945 -0.026073115 0.030180786 -0.013446415 -0.008192264 0.016534172
-0.023030542 -0.013443576 0.023139548 0.01523567 -0.012553247 0.0144765675 -0.010328362 -0.017814998
0.020076577 -0.006329853 -0.019311845 -0.005636381 -0.012689691 0.01140292 -0.014536263 -0.031313647
-0.01648522 0.028016616 0.010284979 0.021570075 -0.012153771 -0.003610015 -0.0008339733 0.029769566
-0.012559727 0.027853556 0.0015763007 0.029409502 -0.00910528 0.024664119 -0.014722776 -0.017745387
0.031076219 0.02360018 0.029563013 -0.018791012 0.008396171 0.014575329 0.03190073 0.0021209642
0.014046017 0.019868642 0.0009384975 -0.026705394 -0.03066814 0.019239169 0.014572371 -0.0057609566
0.0028270856 -0.02755227 0.03114811 0.026123673 -0.013582118 0.02686498 -0.004467098 -0.019289132
-0.013276776 0.030486476 0.012580883 0.007845867 0.009178206 0.028568521 0.014991451 -0.0152094215
0.033378605 -0.0078043267 -0.0010476522 -0.013861248 -0.029904991 0.014601532 0.0007585138 0.020156644
0.0050841942 0.020176139 0.009046111 0.023316242 0.01047869 -0.0133257415 -0.00483186 -0.0048927628
0.016629092 -0.018090151 -0.017092917 -0.009239044 0.011383377 -0.012340885 0.02459956 -0.033302218
-0.03247682 -0.031555105 0.0009695962 -0.009154005 0.022709161 0.020478718 0.0021841526 -0.03143671
-0.014555175 -0.02219468 -0.027995773 -0.02837428 -0.02591333 -0.008539271 -0.018550796 -0.021982536
0.024857037 -0.013312694 -0.0048232004 0.003443092 0.023357391 -0.020624053 -0.005390577 -0.02500429
0.018493664 0.02115576 0.028495457 -0.012788314 0.01079794 0.004450407 -0.017897949 0.027866185
0.033147607 0.0032496564 0.007332526 -0.029007327 -0.0008562468 0.018668298 -0.019934673 0.031679634
-0.03143819 0.01919517 0.018588189 0.014297094 -0.0012496486 -0.024455465 -0.018573992 0.016093906
-0.014919667 0.005249191 0.00024995953 0.010236856 -0.0023968648 0.001510255 0.007925957 -0.023371067
0.021285448 -0.014734058 -0.032587178 -0.010696517 -0.0096168 -0.021784533 0.024547692 0.022199288
0.0030993186 -0.0059854556 -0.0011048578 -0.019292451 -0.01004713 0.02751971 -0.026179122 0.0037677623
0.016670208 -0.031179726 -0.0043838713 -0.024543013 -0.017468806 0.011026941 -0.011634376 -0.0243202
0.0068088584 0.024731606 -0.027561914 -0.024915095 -0.0042465143 -0.03064113 -0.026381997 0.011355408
0.0060548894 0.010340303 -0.0056965873 0.015254598 -0.028718628 -0.0043871123 0.002826888 0.016597297
0.018024608 0.030287351 -0.0041866023 -0.030670958 0.011824701 0.00033451244 -0.007166514 -0.006302383
-0.021422133 -0.030278925 -0.0056586713 0.02563262 0.006492153 0.016507298 -0.02404645 -0.011928543
-0.0038953703 -0.024412777 -0.029524913 0.0015688576 0.009299539 -0.009814467 0.003493894 0.013371158
00000000: 7c75 89bb dc7f 86bb e805 2c3c 94aa 363c
00000010: c495 a3bb 7827 6dbb 00b3 6abc 38a9 833b
00000020: be60 05bc 1e6e 823c 3a97 ee3c d0b1 7f3b
00000030: 2aad d3bc 8009 fe39 00ed 883c 3060 16bb
00000040: dc37 923c 80ba fd3b d04b d6bb 860f c9bc
00000050: ec5c c0bb c997 91bc 1fe7 89bc 46d5 18bc
00000060: 98cc 2b3c 0011 833b 8086 e7b9 d0f0 d6bb
00000070: 0a1f ac3c 08f5 f93b 82a8 f23c 827f 94bc
00000080: 5ee5 94bc 5a69 e7bc d857 e63b 447c 9bbc
00000090: 7c0e f4bc 8c6c 7dbc c0d7 bcbc 3b06 073d
000000a0: 994d f0bc c5da 84bc 548d 5b3c 4997 d5bc
000000b0: b23d f73c 5a4e 5cbc d838 06bc ac72 873c
000000c0: 8caa bcbc 7242 5cbc 268f bd3c 089f 793c
000000d0: 22ac 4dbc 202f 6d3c 4a38 29bc c2f0 91bc
000000e0: a277 a43c a86a cfbb e033 9ebc 64b1 b8bb
000000f0: 6ce8 4fbc 50d3 3a3c 8229 6ebc bd42 00bd
00000100: 030c 87bc 1a83 e53c 5482 283c bab3 b03c
00000110: 9c20 47bc 0096 6cbb 009f 5aba 4edf f33c
00000120: 50c7 4dbc 242d e43c e09b ce3a 32ec f03c
00000130: 502e 15bc 680c ca3c cc37 71bc c65e 91bc
00000140: 8e93 fe3c 2a55 c13c 222e f23c 9cef 99bc
00000150: 1890 093c 5ccd 6e3c 57aa 023d e0ff 0a3b
00000160: 4421 663c 90c3 a23c 8005 763a 45c5 dabc
00000170: c03b fbbc 769b 9d3c f4c0 6e3c 68c6 bcbb
00000180: a046 393b 4cb5 e1bc 522a ff3c 5001 d63c
00000190: 8887 5ebc f213 dc3c bc60 92bb 3e04 9ebc
000001a0: d686 59bc c6be f93c 0c20 4e3c f48b 003c
000001b0: 3060 163c 8808 ea3c b49e 753c f030 79bc
000001c0: 01b8 083d 70bb ffbb 6051 89ba 4a1a 63bc
000001d0: 50fb f4bc 443b 6f3c 00d7 463a 8c1f a53c
000001e0: 5099 a63b 6e48 a53c 2436 143c b401 bf3c
000001f0: d0ae 2b3c 3654 5abc 9454 9ebb 7853 a0bb
00000200: bc39 883c cc31 94bc 7206 8cbc 5c5f 17bc
00000210: 5881 3a3c 6c31 4abc 0485 c93c e867 08bd
00000220: 6a06 05bd ed3f 01bd 802c 7e3a aefa 15bc
00000230: 9008 ba3c fcc2 a73c 0024 0f3b c8c3 00bd
00000240: d478 6ebc 9ed1 b5bc 6457 e5bc 2e71 e8bc
00000250: 3148 d4bc 4ce8 0bbc d7f7 97bc b814 b4bc
00000260: fca0 cb3c 7c1d 5abc f00b 9ebb 80a5 613b
00000270: 0058 bf3c c6f3 a8bc 70a3 b0bb ccd5 ccbc
00000280: 0680 973c d84e ad3c 4e6f e93c 1486 51bc
00000290: d8e9 303c b8d4 913b b89e 92bc a047 e43c
000002a0: c9c5 073d 30f8 543b b045 f03b c6a0 edbc
000002b0: c075 60ba 42ee 983c 0a4e a3bc 81c2 013d
000002c0: 55c5 00bd 303f 9d3c 4246 983c 5c3e 6a3c
000002d0: 40cb a3ba d456 c8bc 7c28 98bc 5ed7 833c
000002e0: 9e71 74bc 6801 ac3b 000d 8339 7cb8 273c
000002f0: b814 1dbb c0f3 c53a e0db 013c ae74 bfbc
00000300: d25e ae3c 1e67 71bc 227a 05bd 7240 2fbc
00000310: c88f 1dbc 7a75 b2bc 3e18 c93c 48db b53c
00000320: f01d 4b3b a421 c4bb e0d0 90ba 340b 9ebc
00000330: b89c 24bc 0471 e13c 9975 d6bc 90ec 763b
00000340: f68f 883c a06c ffbc 94a6 8fbb 6e0e c9bc
00000350: be1a 8fbc 58aa 343c 1c9e 3ebc 283b c7bc
00000360: d81c df3b f099 ca3c 86c9 e1bc be1a ccbc
00000370: 5826 8bbb 1b03 fbbc 0f1f d8bc 080c 3a3c
00000380: 1868 c63b 606a 293c 70aa babb 6cee 793c
00000390: 5443 ebbc c4c1 8fbb 5043 393b 0ef7 873c
000003a0: 58a8 933c 2e1d f83c c42f 89bb a941 fbbc
000003b0: 64bc 413c 8061 af39 14d5 eabb 3884 cebb
000003c0: 787d afbc 820b f8bc 606c b9bb 80fb d13c
000003d0: 20bc d43b 503a 873c 10fd c4bc f06f 43bc
000003e0: 7849 7fbb 4efd c7bc 3bde f1bc 20a2 cd3a
000003f0: 185d 183c dccc 20bc d0f9 643b b412 5b3c

bias f4 [4]
0.023523271 -0.0019877106 0.023588073 0.026223265
00000000: e0b3 c03c 4044 02bb c63b c13c 2cd2 d63c
